stacked_gru_model.pth (torch, 600955 bytes, 9 tensors)

gru.weight_ih_l0 f4 [384, 1]
0	0xbad48d7a	-0.001621648
1	0x3c9913ed	0.01868626
2	0xbdb04469	-0.08606798
3	0xbd4ab93f	-0.04949307
4	0xbcf527db	-0.029926231
5	0xbdddc0f8	-0.108278215
6	0xbd3a797b	-0.04552601
7	0xbda741fb	-0.08166882
8	0xbda5ddeb	-0.08098968
9	0x3dcb8ebb	0.09939333
10	0x3ce24e1b	0.027625134
11	0xbd50cac0	-0.050974607
12	0x3d38c953	0.045113873
13	0x3e011f73	0.12609653
14	0xbab3c9b3	-0.0013716727
15	0xbba30baa	-0.0049757557
16	0xbd23e11b	-0.0400096
17	0xbd3927ea	-0.04520408
18	0x3d414d62	0.04719294
19	0xbbf5dec3	-0.007503362
20	0xbdb53db0	-0.088496566
21	0xbdd4f00b	-0.10397347
22	0x3d84f26e	0.06491552
23	0xbd3315be	-0.043721907
24	0xbdd7d727	-0.10539084
25	0xbb7a2a4a	-0.003817218
26	0xbc3b9726	-0.011449611
27	0xbd4e0b11	-0.050303522
28	0xbd922bb4	-0.07137242
29	0x3d398fbc	0.04530309
30	0x3dbef4e7	0.09324055
31	0x3e0396fd	0.12850566
32	0x3d9909a6	0.074725434
33	0x3d9ea45c	0.07746193
34	0x3ba61076	0.0050678803
35	0x3d9ec904	0.077531844
36	0x3d85db1e	0.06535934
37	0x3c07a02a	0.008277932
38	0x3cd5c006	0.02609254
39	0xbcc057fe	-0.023479458
40	0xbd35d1bd	-0.044389475
41	0xbe26012b	-0.16211383
42	0xbdc8c3c4	-0.09802964
43	0xbd0f5c1e	-0.03499996
44	0xbcb37276	-0.021905165
45	0x3d4ffd3b	0.05077861
46	0xbcdbf08f	-0.026848106
47	0x3b09da81	0.002103478
48	0x3d90d344	0.07071546
49	0xbaa994a2	-0.0012937973
50	0x3d93fb25	0.072256364
51	0x3c465cf8	0.012107126
52	0xbd1b9e2c	-0.03799264
53	0x3df3db85	0.119071044
54	0xbdcd09a9	-0.10011608
55	0xbcd36139	-0.025803195
56	0x3d4e258b	0.050328773
57	0x3d3144ed	0.043278623
58	0x3be2cd7b	0.006921468
59	0xbd9cefbf	-0.076629154
60	0xbe02a4f7	-0.12758242
61	0x3cf59061	0.029976072
62	0xbdb87a55	-0.09007708
63	0xbdc88ba3	-0.097922586
64	0xbdac6873	-0.084183596
65	0xbdf0306e	-0.11727987
66	0xbc0d66e6	-0.00863049
67	0x3c85c942	0.016331319
68	0xbdcbfe8a	-0.09960659
69	0xbda275ba	-0.07932611
70	0x3d277b5d	0.040889133
71	0xbb8e93b3	-0.004351103
72	0x3d9160fd	0.07098577
73	0x3d38002e	0.044922046
74	0x3dc0b3de	0.09409307
75	0x3ccb7f6b	0.024841031
76	0xbd074d7d	-0.033032883
77	0x3d2b4e90	0.04182297
78	0xb8eaed08	-0.0001120214
79	0xbd301f2e	-0.042998485
80	0xbe12cb12	-0.14335278
81	0x3dce7f74	0.100829035
82	0xbde455d4	-0.11149183
83	0xbe04afb3	-0.12957649
84	0xbdd89f13	-0.10577216
85	0x3da5d69e	0.080975756
86	0xbda1c4f5	-0.07898895
87	0x3d18a153	0.037263226
88	0x3c1d1544	0.00958759
89	0xbdaad529	-0.08341438
90	0x3c7aaf92	0.015300648
91	0xbd444f88	-0.04792741
92	0x3d91b57f	0.07114696
93	0xbc7b1376	-0.015324464
94	0x3e23fa89	0.1601354
95	0xbdb2863c	-0.087170094
96	0x3c396229	0.011314907
97	0xbce68ecf	-0.028144268
98	0xbe03e555	-0.12880452
99	0x3c6bd48a	0.014393935
100	0x3c0d29c4	0.008615915
101	0xbdc8d641	-0.09806491
102	0x3dd6d50d	0.10489855
103	0x3ca6607f	0.020309685
104	0x3a4ae2ba	0.00077394734
105	0xbdb8df91	-0.09027017
106	0x3d50f6e1	0.051016692
107	0x3ce1909d	0.027534777
108	0xbd3b0b42	-0.045665033
109	0xbd4a65f0	-0.04941362
110	0xbad38f08	-0.0016140649
111	0x3ddf3a60	0.10899806
112	0x3dc84703	0.097791694
113	0x3d65a701	0.05606747
114	0x3d844ab7	0.06459563
115	0x3d63c49b	0.05560742
116	0xbdd84eb0	-0.105618834
117	0x3d1392fb	0.036028843
118	0x3bcdba55	0.006278316
119	0xbd9ae98a	-0.07564075
120	0x3d4db98a	0.050225772
121	0xbc3557d2	-0.011068301
122	0x3cf84e60	0.03031081
123	0xbd4ebfcd	-0.050475884
124	0x3d8672e1	0.0656488
125	0x3d36bbe3	0.044612776
126	0x3a547b5b	0.00081055396
127	0x3dabf2e5	0.08395938
128	0x3c39705d	0.011318293
129	0x3cf9a288	0.030473009
130	0x3d8587cf	0.06520044
131	0x39d7f01c	0.0004118689
132	0xbc3665dd	-0.011132685
133	0x3ccb57bf	0.024822114
134	0x3d3d18e6	0.046166323
135	0x3e151b41	0.14561178
136	0x3e2e618a	0.17029396
137	0xbd4e7578	-0.050404996
138	0x3cf7bf15	0.030242482
139	0x3d980250	0.07422316
140	0x3de4403c	0.11145064
141	0xbd90e75b	-0.070753776
142	0x3cc0efa4	0.02355177
143	0x3c932d64	0.01796598
144	0x3cd8dc34	0.026472189
145	0x3d81307f	0.06308078
146	0x3c6a9942	0.014318766
147	0x3d22ee53	0.039778065
148	0x3dd12442	0.10211994
149	0x3d1468c4	0.036232725
150	0x3cded4ce	0.027201083
151	0xbb2c345b	-0.0026276323
152	0x3da1c3db	0.078986846
153	0x3e2b1583	0.16707425
154	0xbd2a7772	-0.04161782
155	0x3d366a81	0.044535164
156	0x3cfa140c	0.030527137
157	0x3e0251e6	0.12726554
158	0x3d9838f2	0.074327365
159	0x3e17b771	0.14816071
160	0x3d395ce8	0.045254618
161	0xbcb0dacf	-0.021588711
162	0x3ddb4d1a	0.10708065
163	0x3df1e2c4	0.1181083
164	0xbbf0bee5	-0.007346975
165	0x3e06eef3	0.1317709
166	0x3df6aa87	0.12044244
167	0xbd870df3	-0.065944575
168	0xbba7b2e3	-0.0051177605
169	0x3cfe3052	0.0310289
170	0xbbab217f	-0.005222499
171	0x3ce5beec	0.02804514
172	0x3d9c99b0	0.07646501
173	0xbca12bc9	-0.019674199
174	0xbe1e8427	-0.154801
175	0x3d4b19eb	0.049585264
176	0x3d9305b3	0.071788214
177	0x3d8d5196	0.06900327
178	0x3dd18728	0.10230857
179	0x3d09e5af	0.03366631
180	0x3e081b4f	0.13291667
181	0xbccf05ef	-0.025271384
182	0x3d610840	0.05493951
183	0xbda4a9f5	-0.08040229
184	0x3d22db29	0.03975979
185	0xbd10631c	-0.035250768
186	0x3dc033b7	0.09384864
187	0xbc773456	-0.015088161
188	0x3db826bc	0.08991763
189	0x3d9122a7	0.070866875
190	0xbc9c526f	-0.019082276
191	0xbc68b433	-0.014203119
192	0x3cd62924	0.026142664
193	0xbd357177	-0.04429766
194	0x3d9555a8	0.07291728
195	0xbd8cd5d1	-0.0687672
196	0x3e0c49be	0.13700005
197	0x3c516b44	0.012781922
198	0x3dc6a01f	0.096985094
199	0x3dd0d017	0.1019594
200	0x3df77069	0.120819874
201	0x3d1133de	0.035449855
202	0x3d8ed486	0.069741294
203	0x3db40553	0.08790078
204	0x3e439d2d	0.19102927
205	0xbc162ec8	-0.009166427
206	0x3c4fcb8c	0.012682807
207	0x3dbe0042	0.09277393
208	0xbb4f906a	-0.003167177
209	0xbd11c872	-0.03559155
210	0xbd1b869d	-0.037970174
211	0xbdf1f670	-0.11814582
212	0x3e07139c	0.13191074
213	0xbbb847e9	-0.0056238067
214	0x3e144e6b	0.14483039
215	0x3da15df3	0.078792475
216	0x3d1aebca	0.037822522
217	0x3db57360	0.08859897
218	0xbdebbf7d	-0.11511133
219	0xbdb6b97b	-0.08922096
220	0x3ce5c798	0.028049275
221	0x3d8c7afc	0.06859395
222	0x3b9ef19e	0.0048505804
223	0x3d856408	0.0651322
224	0x3d0c08c3	0.034188043
225	0x3d62e20b	0.055391353
226	0x3d052996	0.032510363
227	0x3d3b787e	0.045769207
228	0x3c32dd9a	0.010917092
229	0x3df87ce1	0.12133194
230	0xbdff8915	-0.12477318
231	0xbd02a014	-0.031890944
232	0x3d803296	0.062596485
233	0x3d17e4a2	0.037083276
234	0x3db5d8a8	0.088792145
235	0xbd5da4d7	-0.05411228
236	0xbb855078	-0.0040684305
237	0x3d7b8c9a	0.061413385
238	0x3d29017d	0.041261185
239	0x3cdf85e4	0.027285524
240	0x3c54d6e5	0.012990688
241	0x3df1ce49	0.11806924
242	0xbde313c5	-0.11087755
243	0x3e2b258d	0.16713543
244	0x3d020c2a	0.03174988
245	0x3c184413	0.009293574
246	0x3da5fb1a	0.081045344
247	0x3d4cf779	0.050040696
248	0x3dbfc402	0.093635574
249	0xbdae94ed	-0.08524499
250	0x3d51e358	0.051242203
251	0x3e4092d6	0.18806013
252	0x3cc50b00	0.024053097
253	0x3cc35930	0.023846239
254	0x3dad9de1	0.08477379
255	0x3dd2cd5b	0.10293075

gru.weight_hh_l0 f4 [384, 128]
0	0x3dc9950a	0.0984288
1	0x3cad6149	0.021164553
2	0x3d16a5aa	0.036779083
3	0xbd0e1d86	-0.034696124
4	0xbccad3f3	-0.024759268
5	0xbba102df	-0.0049136723
6	0xbce393b1	-0.027780386
7	0xbdb266bd	-0.08711002
8	0xbc38c53f	-0.011277496
9	0x3d9e7d04	0.077386886
10	0xbce7b32b	-0.028283676
11	0xbd75cae3	-0.06000794
12	0xbd2deeab	-0.04246394
13	0xbac25b4c	-0.0014828234
14	0x3ce262ce	0.027635004
15	0x3d97bd5c	0.07409164
16	0xbd98dc43	-0.074638866
17	0xbd8c1ef5	-0.06841842
18	0xbcc5c604	-0.024142273
19	0x3a65b0d6	0.00087620073
20	0xbc866ec7	-0.016410245
21	0xbbe5f522	-0.0070177475
22	0x3d87950d	0.06620226
23	0xbccc7a72	-0.02496073
24	0x3d542006	0.051788352
25	0xbd36c187	-0.044618156
26	0x3d36a98a	0.04459528
27	0xbd647ff6	-0.055786096
28	0xbd6daa91	-0.058023993
29	0xbda29f2e	-0.07940517
30	0xbd761fae	-0.060088806
31	0x3d3feb33	0.046855163
32	0x3db053c6	0.086097285
33	0xbd6dfaae	-0.058100395
34	0x3d4cdf3d	0.050017584
35	0x3d139c15	0.036037523
36	0xbdc2ba38	-0.09508175
37	0xbd3725a5	-0.044713635
38	0xbd1c1fe2	-0.038116343
39	0xbcb88f79	-0.02252935
40	0x3d90843b	0.07056471
41	0x3a283972	0.00064172514
42	0xbd50a1e5	-0.050935645
43	0xbdccc44b	-0.099983774
44	0x3d07c148	0.03314331
45	0x3d2c6878	0.042091817
46	0xbd97146f	-0.07376944
47	0x3b3eea2b	0.0029131274
48	0xbd8f3362	-0.06992222
49	0xbd9e21b8	-0.07721275
50	0xbb943f7e	-0.0045241704
51	0xbde73c0c	-0.1129075
52	0x3c1b9356	0.009495577
53	0xbc5d5731	-0.013509558
54	0xbd596fb4	-0.053085044
55	0xbd907b64	-0.07054785
56	0xbd15aabc	-0.036539778
57	0x3db1e2f7	0.08685868
58	0x3da033e9	0.07822401
59	0xbd981988	-0.07426745
60	0xbcfcf65b	-0.03087919
61	0xbd883999	-0.06651611
62	0xbca677aa	-0.020320732
63	0xbbe68d68	-0.0070359
64	0xbcb5beef	-0.02218577
65	0xbcfa3cfc	-0.030546658
66	0x3de36aa4	0.111043245
67	0xbd5b1179	-0.05348346
68	0x3d656fe9	0.05601493
69	0x3d607300	0.054797173
70	0xbca9ff75	-0.020751694
71	0x3d1cf95d	0.03832375
72	0x3d011494	0.031513765
73	0xbb87e029	-0.004146595
74	0xbc63f49c	-0.0139133
75	0x3daa49ac	0.08314833
76	0xbd2536da	-0.040335514
77	0xbd255a9e	-0.040369622
78	0xbcd022ad	-0.02540716
79	0xbd965f92	-0.07342447
80	0x3c41beeb	0.011825304
81	0x3c9b4646	0.018954407
82	0x3c19e9a7	0.009394086
83	0x3d6e1a01	0.058130268
84	0x3b37cbf5	0.0028045152
85	0x3d201cdc	0.039090022
86	0x3d6f03ca	0.058353223
87	0x3ce02f19	0.027366208
88	0x3ce84be0	0.028356493
89	0x3d9cd9a8	0.07658702
90	0x3db646c5	0.08900217
91	0xbd8e9506	-0.06962018
92	0xbcf884ed	-0.030336821
93	0x3d6800e4	0.056641474
94	0xbd97d22f	-0.07413136
95	0xb982eda5	-0.0002497259
96	0x3d96c765	0.0736225
97	0xbd537c1b	-0.051632028
98	0xbca6ed46	-0.020376813
99	0xbd81da9f	-0.06340527
100	0xbc423936	-0.01185446
101	0x3d27b75f	0.04094636
102	0x3cc98579	0.024599778
103	0xba88c2df	-0.0010434053
104	0x3d1a54f4	0.037678674
105	0x3b852826	0.004063624
106	0xbbecd125	-0.0072270804
107	0xbd7a40f1	-0.06109709
108	0x3c886519	0.01664977
109	0xbd01892e	-0.031624965
110	0x3d98c528	0.074594796
111	0xbd306f26	-0.04307475
112	0xbd96feb1	-0.07372797
113	0x3d5c4556	0.05377706
114	0x39837ae6	0.00025077834
115	0xbd2f37e3	-0.042777907
116	0x3b899179	0.00419825
117	0xbc2a9bc8	-0.010413118
118	0xbd70e360	-0.05881059
119	0xbcc89564	-0.024485298
120	0x3cc8aec2	0.024497394
121	0x3d732ac5	0.05936696
122	0xbd9193e7	-0.07108288
123	0x3d8d33a5	0.06894616
124	0xbd172791	-0.036902968
125	0x3c651480	0.013981938
126	0xbcd7a4a1	-0.026323618
127	0x3b477430	0.0030434243
128	0xbc49d8a7	-0.01231972
129	0x3ac3cc78	0.0014938256
130	0xbd1678b6	-0.036736213
131	0x3d9ae71a	0.075636104
132	0xbd1e04d4	-0.038578823
133	0x3c38a877	0.011270634
134	0xbcbb64b7	-0.022875173
135	0x3da31134	0.079622656
136	0xbd969423	-0.073524736
137	0x3daf4c8d	0.08559523
138	0xbd641d6d	-0.055692125
139	0x3dc87299	0.09787483
140	0x3d2fc155	0.042908985
141	0x3d9a8e77	0.07546704
142	0xbd105c5a	-0.035244323
143	0xbda88214	-0.082279354
144	0x3d324afb	0.04352854
145	0x3bdf89f8	0.006821867
146	0x3bcfd4f6	0.0063425256
147	0xbbe2fe17	-0.0069272625
148	0x3dbc1876	0.09184353
149	0x3a448b7e	0.00074975926
150	0x3a012cfb	0.0004927662
151	0xbdc44414	-0.09583297
152	0x3c97e802	0.018543247
153	0x3da91a4f	0.08256971
154	0x3c806ce3	0.015676921
155	0xbd0dd8a5	-0.034630436
156	0xbcafa054	-0.021438755
157	0xbd3c7e54	-0.046018913
158	0xbd0c7fcb	-0.03430156
159	0x3db2b865	0.08726577
160	0xbd7f215b	-0.06228767
161	0xbd7f379b	-0.06230889
162	0x3d2ec68f	0.04266983
163	0x3d7d863b	0.06189559
164	0xbd072c0d	-0.033000994
165	0x3bb132c6	0.005407664
166	0x3d56409e	0.052307718
167	0x3d0d4f9b	0.034499746
168	0xbd8c2b0c	-0.06844148
169	0x3d8d6398	0.069037616
170	0x3c349f6c	0.011024337
171	0xbd3691d1	-0.044572655
172	0x3d68608e	0.056732707
173	0xbdb52739	-0.08845372
174	0xbcd74c01	-0.026281359
175	0x3d8410ae	0.06448494
176	0x3d811f32	0.06304778
177	0x3d0d2b23	0.034464967
178	0x3d9279f5	0.07152168
179	0xbda21808	-0.0791474
180	0xbc412acb	-0.011789988
181	0x3ba670be	0.005079358
182	0xbd8ddca3	-0.06926849
183	0x3d703a10	0.058649123
184	0x3dc45ad7	0.09587639
185	0xbda073b0	-0.07834566
186	0xbda79e20	-0.08184457
187	0x3dabe57d	0.08393381
188	0x3d1cef65	0.038314242
189	0x3d829e30	0.06377828
190	0x3cfef907	0.031124605
191	0xbd14fe79	-0.036375497
192	0xbcc0d20c	-0.023537658
193	0x3d48515e	0.048905723
194	0x3b4def8b	0.0031423296
195	0x3d70b30c	0.058764502
196	0x3d8a8785	0.067641295
197	0xbc1b4ce9	-0.009478786
198	0x3c9ce27d	0.019150967
199	0x3d99a28d	0.07501707
200	0xbd9d95c7	-0.076945834
201	0x3d922133	0.071352385
202	0x3d4810ce	0.04884415
203	0x3d6b87c8	0.057502538
204	0xbd125ade	-0.03573119
205	0xbd442650	-0.0478881
206	0xbb7baacc	-0.0038401363
207	0x3ccc668c	0.024951242
208	0x3cd1a934	0.025593378
209	0x3dd628a2	0.10456969
210	0xbd4fbde3	-0.0507182
211	0x3ae541ad	0.0017490886
212	0xbc4a2946	-0.012338942
213	0x3d1ffa26	0.03905692
214	0x3dbfa92b	0.09358438
215	0xbd20e269	-0.03927842
216	0x3d80e867	0.06294327
217	0xbb855fef	-0.004070274
218	0x3b45c115	0.00301749
219	0xbd9cf5af	-0.07664048
220	0xbd9dc608	-0.07703787
221	0x3be06e56	0.0068490906
222	0xbd1b7866	-0.037956618
223	0xbdbaad82	-0.09115125
224	0x3ccfde02	0.025374416
225	0x3d914cad	0.07094703
226	0x3dbd4629	0.092418976
227	0xbd65899e	-0.056039445
228	0x3d6fd99a	0.05855713
229	0xbd7be1b0	-0.06149453
230	0x3d0be3ea	0.034152903
231	0x3bbaf86c	0.0057058837
232	0xbd800abf	-0.0625205
233	0x3d9e9cae	0.07744728
234	0x3ca2aba3	0.019857233
235	0xbcd98bbc	-0.026555888
236	0xbd7481c9	-0.059694085
237	0x3d993698	0.07481116
238	0x3ccacd31	0.024756046
239	0xbd07fd3b	-0.033200484
240	0x3cbf3b03	0.023343569
241	0xbcb45ddf	-0.022017417
242	0x3d9b7d7d	0.07592294
243	0x3d31988e	0.043358378
244	0xbda76c6a	-0.08174975
245	0x3cbff566	0.023432445
246	0xbb8d4b8d	-0.004311985
247	0xbc425bcc	-0.011862706
248	0xbdbcbfa6	-0.092162415
249	0xbdc919cc	-0.098193735
250	0x3d757caf	0.05993336
251	0x3d79a8b8	0.06095192
252	0x3c9d812a	0.01922663
253	0x3d20ac22	0.03922666
254	0x3d83726a	0.06418307
255	0x3d26e418	0.04074487

gru.bias_ih_l0 f4 [384]
0	0x3d0879ab	0.033319157
1	0xbdb13d82	-0.0865431
2	0xbda0faec	-0.078603595
3	0x3d3fbce2	0.046810992
4	0x3d31fae3	0.043452155
5	0xbd1b0613	-0.03784759
6	0xbcbbf9cc	-0.02294626
7	0x3d14320e	0.03618055
8	0x3d27c60e	0.040960364
9	0xbdc2081c	-0.09474203
10	0xbd84b0de	-0.06479047
11	0xbddb1d0b	-0.10698899
12	0xbd480eb7	-0.04884216
13	0x3d4909a4	0.04908146
14	0xbdbc0f01	-0.09182549
15	0xbd84ecbe	-0.064904675
16	0x3d6a8035	0.057251174
17	0xbdbcd424	-0.0922015
18	0xbc5cd8fa	-0.013479466
19	0x3d234948	0.03986481
20	0x3cbd1777	0.023082478
21	0xbe2433ed	-0.16035433
22	0x3b2ce714	0.002638285
23	0xbd469376	-0.048480473
24	0xbd447d44	-0.047971025
25	0x3cc3d6a0	0.023906052
26	0x3b54c007	0.003246309
27	0xbdbd1f73	-0.09234514
28	0x3d3e14fc	0.04640673
29	0x3c63e1ab	0.013908784
30	0xbc135f86	-0.0089949425
31	0x3e113778	0.14181316
32	0xbdcd83d5	-0.100349106
33	0xbd1d5cd1	-0.038418595
34	0x3c54b8a5	0.012983476
35	0x3cec2646	0.028826844
36	0xbdbe0ed4	-0.09280172
37	0xbca34636	-0.01993094
38	0x3bd6b7dc	0.0065526795
39	0xbd3ccd54	-0.046094254
40	0x3c17c3a7	0.009262956
41	0xbc6830a7	-0.014171756
42	0xbd985085	-0.07437233
43	0x3d9f68df	0.077836744
44	0xbd4682b4	-0.048464492
45	0x3d5affa7	0.053466465
46	0xbdf9e0f5	-0.1220111
47	0x3d959b09	0.07304961
48	0x3c9678e9	0.018368201
49	0x3b2673c5	0.0025398594
50	0x3ca45e8d	0.020064617
51	0x3da2702d	0.07931552
52	0x3c952f38	0.018210992
53	0xbb949842	-0.004534752
54	0xbda2b0d0	-0.079438806
55	0x3c9feb73	0.01952145
56	0xbd224b21	-0.03962243
57	0xbdb8c02a	-0.090210274
58	0xbc9ce03c	-0.019149892
59	0xbd9add71	-0.07561768
60	0x3c72842e	0.014802022
61	0x3cf858d3	0.030315792
62	0xbcc9649c	-0.024584107
63	0xbded6552	-0.11591591
64	0xbca922ee	-0.020646539
65	0xbda3e663	-0.08002927
66	0xbdeacdee	-0.11465059
67	0xbbc2c71f	-0.0059441472
68	0x3c0d8280	0.008637071
69	0xbcb8e6ca	-0.022570986
70	0xbd464b43	-0.04841162
71	0xbd798ddd	-0.060926307
72	0xbc838993	-0.016056811
73	0xbdd83b46	-0.105581805
74	0xbdf0a3e7	-0.11750012
75	0x3c7924c5	0.01520652
76	0xbdb3222c	-0.08746752
77	0x3d2473eb	0.04014961
78	0xbc075dcd	-0.00826211
79	0x3d90fdc5	0.07079653
80	0xbe241621	-0.16024067
81	0x3cc0805b	0.023498705
82	0xbdac724a	-0.084202364
83	0xbd467ce5	-0.048458952
84	0xbc45175a	-0.012029493
85	0xbdd09266	-0.10184173
86	0xbcbe7d16	-0.023253005
87	0xbdfd410a	-0.12365921
88	0xbceaa76c	-0.028644286
89	0xbd38ef39	-0.045150016
90	0x3c8c726b	0.017144402
91	0xbbb322c1	-0.0054667895
92	0xbd0b6457	-0.03403124
93	0xbdb159f1	-0.08659733
94	0xbc4abe53	-0.012374478
95	0x3a8812ab	0.001038154
96	0xbde5919c	-0.112094134
97	0xbd3771a1	-0.0447861
98	0xbd275c76	-0.040859662
99	0xbb8a59a7	-0.004222113
100	0xbdf155ea	-0.11783965
101	0x3d591822	0.05300153
102	0x3d6c9025	0.057754654
103	0xbcf6ab98	-0.03011112
104	0x3b858402	0.0040745744
105	0xbdf3cd9a	-0.1190445
106	0x3db86e9a	0.090054706
107	0xbda2be34	-0.079464346
108	0xbdc9c181	-0.09851361
109	0xbdc01c00	-0.093803406
110	0x3d359fd6	0.044341885
111	0x3d3b1e34	0.0456831
112	0xbcfab450	-0.030603558
113	0x3d9f6b02	0.07784082
114	0xbdb817f0	-0.08988941
115	0x3d5b5029	0.053543244
116	0xbe1a86a4	-0.15090424
117	0xbd258607	-0.04041102
118	0xbba41652	-0.0050075436
119	0xbd28bd0d	-0.041195918
120	0xbcdde914	-0.02708868
121	0xbdc34059	-0.09533758
122	0xbd645556	-0.055745445
123	0xbd854f50	-0.06509268
124	0x3cb86a8b	0.022511741
125	0xbd3f7196	-0.046739183
126	0x3d455a26	0.048181675
127	0x3c8764da	0.016527582
128	0x3db9aa1e	0.090656504
129	0xbd2b1398	-0.041766733
130	0xbc96d1fa	-0.018410672
131	0x3ddfd152	0.109285966
132	0x3d8377eb	0.06419357
133	0x3d13131a	0.03590689
134	0x3d99d3da	0.075111106
135	0x3cd2972d	0.025706852
136	0x3de0c34f	0.10974752
137	0x3cb64704	0.02225066
138	0x3d471db4	0.04861231
139	0x3d1f397f	0.038873192
140	0x3e1898a4	0.14901978
141	0x3df90739	0.12159581
142	0x3d61448b	0.05499701
143	0x3c598719	0.013276839
144	0x3ddac54d	0.106821634
145	0x3de78d5b	0.11306258
146	0x3da7ac7b	0.08187195
147	0x3e22d2d9	0.15900744
148	0x3da3b863	0.07994153
149	0xbcebf8ba	-0.028805126
150	0x3e3a6796	0.18203577
151	0x3df4f710	0.11961186
152	0x3e1c4ff8	0.1526488
153	0x3e163088	0.1466695
154	0xbd8c72b7	-0.068578176
155	0xbd506fed	-0.05088799
156	0xbd21aabf	-0.039469477
157	0x3e04784e	0.12936518
158	0x3d5eafbf	0.054366823
159	0x3dd6254c	0.104563326
160	0x3e288461	0.16456749
161	0xb8f9981e	-0.00011901579
162	0x3de2efc1	0.11080886
163	0x3e1119b8	0.14169967
164	0x3d91efc8	0.07125813
165	0xbd2d4050	-0.04229766
166	0x3e0545ce	0.1301491
167	0x3d86e503	0.06586649
168	0xbd3eba81	-0.046564583
169	0x3d06edb2	0.032941528
170	0xbc257fa8	-0.010101236
171	0xbcf5ced0	-0.030005842
172	0x3cfabe87	0.030608429
173	0xbd5e2249	-0.054231916
174	0xbcb8dc4b	-0.022565981
175	0x3dd6be60	0.1048553
176	0x3e0799c2	0.13242248
177	0x3da640b2	0.081178084
178	0xbbd5b6b7	-0.0065220254
179	0x3da13ff1	0.07873524
180	0x3e2761d3	0.1634591
181	0x3e05ee43	0.13079171
182	0x3d9512bf	0.07278966
183	0x3cda83f8	0.026674256
184	0x3e1d6c71	0.15373398
185	0xbceb879f	-0.028751193
186	0x3c635c13	0.013876933
187	0x3da1a164	0.07892111
188	0x3cca47b7	0.0246924
189	0x3dbcc631	0.092174895
190	0xbc85fb9d	-0.01635533
191	0x3d336a78	0.04380271
192	0xbc2a3a98	-0.010389946
193	0x3d68c90f	0.05683237
194	0xbda0ceaf	-0.07851922
195	0xbe125258	-0.14289224
196	0x3df9c152	0.12195076
197	0x3bf9b31b	0.007620228
198	0x3cd47826	0.025936197
199	0x3a84fb26	0.0010145649
200	0x3d7aa6b9	0.061194155
201	0xbc80b41e	-0.015710887
202	0x3d0ea9b7	0.03482982
203	0xbbf9b7a1	-0.007620767
204	0x3e4b4f0a	0.1985437
205	0x3d59bea5	0.05316033
206	0xbd7367ff	-0.05942535
207	0x3d52dd0b	0.051480334
208	0xbd962567	-0.07331353
209	0x3dfac9fe	0.12245558
210	0xbda8beba	-0.08239503
211	0xbdc57aec	-0.09642586
212	0x3d0ed619	0.03487215
213	0x3d09aafe	0.033610336
214	0x3e056b32	0.13029173
215	0x3dc07438	0.09397167
216	0x3e15bfba	0.14623919
217	0x3ddd5547	0.10807281
218	0x3d6b1553	0.057393383
219	0x3d1849a6	0.03717961
220	0x3e020e29	0.12700714
221	0xbcb20569	-0.021731095
222	0x3e123cfb	0.14281075
223	0xbd23a884	-0.03995563
224	0x3cf54138	0.029938325
225	0x3dd0cd77	0.10195439
226	0x3c9271a3	0.017876452
227	0x3ca5c956	0.020237606
228	0x3d83e675	0.064404406
229	0x3de40026	0.11132841
230	0xbda768eb	-0.081743084
231	0x3d75e4ee	0.060032777
232	0x3e222f34	0.15838319
233	0xbace033b	-0.0015717515
234	0x3dc8df01	0.098081596
235	0xbd41db9e	-0.047328584
236	0x3e1595bc	0.146079
237	0x3dfb9cfc	0.12285802
238	0x3dfc90d0	0.12332308
239	0xbcf59d37	-0.029982192
240	0xbe575da2	-0.21031812
241	0x3c839617	0.01606278
242	0x3d6f4782	0.058417805
243	0x3d6e6c55	0.058208782
244	0x3c8a621b	0.016892483
245	0x3d4db6c3	0.050223123
246	0x3dafbc55	0.08580843
247	0xbcb3d224	-0.021950789
248	0x3c970479	0.01843475
249	0xbcbcf8a4	-0.02306778
250	0x3df87788	0.12132174
251	0x3e0f74f7	0.14009462
252	0x3e075dc6	0.13219365
253	0x3e1ba52d	0.15199728
254	0xbc8f56a0	-0.01749736
255	0x3c0b2ab0	0.008494064

gru.bias_hh_l0 f4 [384]
0	0x3d3ea2cf	0.046541985
1	0xbd55262e	-0.052038364
2	0xbcaf1aa8	-0.021375015
3	0x3d448091	0.047974173
4	0xbdb5f58e	-0.088847265
5	0x3d0fb62a	0.035085835
6	0x3c3371db	0.010952438
7	0x3d15c278	0.036562413
8	0xbd90d9a8	-0.07072765
9	0xbbf25a85	-0.0073960447
10	0xbd4e2615	-0.050329287
11	0xbdc0c4dc	-0.09412548
12	0x3d1d1dd8	0.03835854
13	0xbd989196	-0.07449643
14	0x3d8be7e0	0.06831336
15	0xbdc7a84a	-0.097488955
16	0x3ca4ae3f	0.020102618
17	0x3d2077bb	0.039176684
18	0x3d10627f	0.035250183
19	0x3b007b87	0.0019604878
20	0xbd202544	-0.03909804
21	0xbb858465	-0.0040746205
22	0x3cf1ed5b	0.029532125
23	0x39849bb0	0.00025292998
24	0x3c3c81c8	0.011505552
25	0xbccc82d3	-0.024964726
26	0xbd9b317f	-0.075778
27	0xbd1ce72e	-0.038306408
28	0xbd9d8801	-0.07691956
29	0x3d0b4a89	0.03400663
30	0xbcd1247f	-0.025530098
31	0x3dfae40b	0.12250527
32	0x3d7306a6	0.059332512
33	0xbdd37a12	-0.103260174
34	0x3d934903	0.0719166
35	0x3d517603	0.051137935
36	0xbce5bbca	-0.028043646
37	0x3b848682	0.004044355
38	0xbc821834	-0.015880682
39	0xbd97e4d4	-0.074166924
40	0xbc046f43	-0.0080831675
41	0x3d51f561	0.051259402
42	0xbde8a748	-0.11360031
43	0x3da1fcfc	0.07909581
44	0xbd0abe4e	-0.033872895
45	0xba0fce7d	-0.0005485786
46	0xbd848c90	-0.06472123
47	0xbd79f730	-0.061026752
48	0x3ce05252	0.027383003
49	0x3d21cd4f	0.03950244
50	0xbd5c1b0d	-0.053736735
51	0x3b5991ec	0.0033198548
52	0x3dd3c479	0.103402086
53	0xbca7ccda	-0.020483423
54	0xbc9a6673	-0.01884768
55	0xbdbf583d	-0.09343002
56	0x3c9a0838	0.018802747
57	0xbdd8bb99	-0.105826564
58	0x3d32683d	0.04355644
59	0x3cd73d20	0.026274264
60	0xbc84ae00	-0.01619625
61	0xbc695c9b	-0.01424327
62	0xbcbd6183	-0.023117786
63	0xbd47d22b	-0.048784416
64	0xbd9352b7	-0.07193511
65	0xbbb00061	-0.005371139
66	0xbdf14664	-0.11781004
67	0x3c2c43ab	0.01051418
68	0xbd9b12cd	-0.07571945
69	0x3d8a6a48	0.06758553
70	0xbc930843	-0.017948275
71	0xbd5aaebf	-0.053389307
72	0x3d8dbba7	0.069205575
73	0x3c8bd24d	0.017068053
74	0xbbaabf76	-0.005210812
75	0x3da83f88	0.082152426
76	0x3da43a34	0.08018914
77	0xbce48764	-0.02789659
78	0xbcf8bcbd	-0.030363435
79	0xbced834c	-0.028993271
80	0xbe2a1bc3	-0.16612153
81	0x3cbfc95f	0.02341145
82	0xbd6bd0e3	-0.057572257
83	0xbcc3add7	-0.023886604
84	0xbdcf2e10	-0.101162076
85	0x3ce6db11	0.02818063
86	0xbd0b50e3	-0.034012686
87	0xbc5f784d	-0.013639522
88	0x3c886055	0.016647497
89	0x3cba1bd0	0.02271834
90	0xbddcce12	-0.10781492
91	0x3d8c59d8	0.06853074
92	0x3d16251a	0.036656477
93	0xbda6e7b8	-0.081496656
94	0xbd2e4138	-0.042542666
95	0xbc6570cc	-0.014003944
96	0xbda5f7d8	-0.08103913
97	0xbcdfb997	-0.027310176
98	0x3d56ec60	0.05247152
99	0xbdce2618	-0.100658596
100	0x3d21f09c	0.039536104
101	0x3cac1963	0.0210082
102	0xbd57f9b6	-0.052728377
103	0x3d114749	0.035468373
104	0x3af1c3d1	0.0018445199
105	0xbcbff355	-0.02343146
106	0xbb2d9e18	-0.0026491936
107	0xbdb178a1	-0.08665586
108	0xbbd69624	-0.00654866
109	0x3ca7f6f4	0.020503499
110	0xbd679ec6	-0.056547903
111	0x3c8ce151	0.017197283
112	0x3c908843	0.0176431
113	0xbd2480f0	-0.040162027
114	0x3c0eec37	0.00872331
115	0x3d3bee4d	0.04588156
116	0xbd55b601	-0.052175526
117	0xbcda324c	-0.026635312
118	0x3d1a69fd	0.037698735
119	0x3d82f219	0.06393833
120	0x3caff8d7	0.02148096
121	0x3d5ce94d	0.05393343
122	0xbde9c94a	-0.11415346
123	0xbd99ea66	-0.07515411
124	0x3cb095b6	0.021555763
125	0xbd46b593	-0.048513006
126	0xbd81020a	-0.06299217
127	0x3d120872	0.035652585
128	0x3dcc246b	0.09967884
129	0xbd3010fc	-0.042984948
130	0xbcfea893	-0.031086242
131	0x3d9dbbe6	0.077018544
132	0x3dc68f59	0.0969531
133	0x3e02dc29	0.12779297
134	0xbc49c6e5	-0.012315487
135	0x3ddb2b50	0.107016206
136	0x3e23f31c	0.16010708
137	0x3cb40634	0.021975614
138	0x3dab40c2	0.08361961
139	0x3e0926ff	0.13393782
140	0x3e0336c9	0.12813868
141	0x3d20bc9e	0.03924238
142	0xbcd41327	-0.025888039
143	0x3d06ad6e	0.03288024
144	0x3cfbf69b	0.03075724
145	0x3d9d50d0	0.076814294
146	0x3dba4a49	0.090962
147	0x3db8c3d8	0.09021729
148	0x3dda172f	0.10648953
149	0xbd53f59e	-0.05174791
150	0x3d98e02d	0.07464633
151	0x3d942866	0.07234268
152	0x3e1bf7c8	0.1523124
153	0x3e14aaaa	0.14518228
154	0x3c969428	0.018381193
155	0xbd1525db	-0.036413055
156	0x3dfd242f	0.12360417
157	0x3c8c00af	0.01709017
158	0xbc1edcf4	-0.009696234
159	0x3de0ded6	0.109800026
160	0x3e1b1edd	0.15148492
161	0x3cb859de	0.02250379
162	0x3dfaf3bc	0.1225352
163	0x3d8b279f	0.067946665
164	0x3e0159c3	0.12631898
165	0xbd48f238	-0.049059123
166	0x3de23e8c	0.11047086
167	0x3d8de1e2	0.06927849
168	0xbd1dac40	-0.03849435
169	0xbd1339e9	-0.0359439
170	0x3dc1f896	0.09471242
171	0x3d31be1a	0.043394186
172	0x3db4d55e	0.08829759
173	0xbc0bd0aa	-0.008533636
174	0xbd813bf7	-0.063102655
175	0x3dd9bcb8	0.10631698
176	0x3df04d76	0.117335245
177	0xbd8d410d	-0.06897173
178	0x3e038d3e	0.12846848
179	0x3dc5f455	0.09665743
180	0x3d9d81ce	0.07690774
181	0x3cb2ff93	0.021850383
182	0xbd36094b	-0.044442456
183	0xbc666695	-0.014062543
184	0x3dc586da	0.096448615
185	0x3c4b52d4	0.0124098845
186	0xbbc21a26	-0.0059235273
187	0x3d298141	0.04138303
188	0x3d9758b9	0.073899694
189	0x3c670ea8	0.014102615
190	0x3d9fecb1	0.07808817
191	0x3dcc16e3	0.09965303
192	0xbd280ecf	-0.041029748
193	0x3dbdc659	0.092663474
194	0xbd834465	-0.064095296
195	0xbdc03b5a	-0.093863204
196	0x3db07a4c	0.08617076
197	0x3de50e72	0.11184396
198	0x3d1953c3	0.037433397
199	0x3d9916e7	0.074750714
200	0x3d6199a6	0.05507817
201	0x3db535e0	0.088481665
202	0xbcd87dd3	-0.026427185
203	0x3dcfb59e	0.101420626
204	0x3de38ac7	0.11110454
205	0x3d7423d3	0.059604477
206	0xbcd8bf40	-0.026458383
207	0x3e04938a	0.12946907
208	0xbcbaeff8	-0.022819504
209	0x3dc72e7b	0.09725662
210	0x3b80e786	0.0039338497
211	0xbdebd51d	-0.115152575
212	0x3d8c15f1	0.068401225
213	0x3cfd1572	0.030894015
214	0x3dc2ce67	0.095120244
215	0x3d8bf9a7	0.06834727
216	0x3e0d7c6e	0.13816997
217	0x3ca0687f	0.019581078
218	0xbc0e4d87	-0.008685476
219	0x3d633041	0.05546594
220	0x3e4503b0	0.19239688
221	0x3dd31f72	0.10308732
222	0x3e355f7d	0.17712207
223	0xbd822901	-0.06355477
224	0x3dbd90f9	0.09256167
225	0x3d28c029	0.041198883
226	0x3d81e66d	0.06342778
227	0x3d8179ad	0.06322036
228	0x3df97898	0.121812046
229	0xbb048c22	-0.0020225127
230	0xbdbaf6d0	-0.09129107
231	0x3c4c0d45	0.012454336
232	0x3d1d7421	0.038440827
233	0x3d7ee628	0.062231213
234	0xbd4198d2	-0.04726488
235	0x38842e9f	6.302934e-05
236	0x3c684c72	0.014178382
237	0x3dade2ab	0.08490499
238	0x3d8be67a	0.06831069
239	0x3dc50c9f	0.09621548
240	0xbe4578b3	-0.19284324
241	0x3ce8d7a9	0.028423147
242	0xbdb33b11	-0.087515004
243	0x3db27fa0	0.08715749
244	0x3db3c40d	0.08777628
245	0x3e2414e9	0.16023602
246	0xbc0892ce	-0.008335782
247	0x3e182a99	0.1486
248	0x3d8b6c2e	0.06807743
249	0xbb2121eb	-0.0024586867
250	0x3af229d1	0.0018475597
251	0x3d4b30d1	0.0496071
252	0x3d938d60	0.072046995
253	0x3d44b2ec	0.048022196
254	0x3bfd6605	0.007733109
255	0x3d8152c7	0.06314617

gru.weight_ih_l1 f4 [384, 128]
0	0x3d24ae0a	0.04020504
1	0xbdb45321	-0.08804918
2	0xbd319220	-0.043352246
3	0x3da15f38	0.0787949
4	0xbbfc2153	-0.0076944022
5	0x3d0e4e19	0.03474245
6	0x3daa2ab2	0.08308925
7	0xbdef04fb	-0.11670872
8	0xbc50f252	-0.012753086
9	0x3cca1e9e	0.024672803
10	0x3d334ce5	0.043774504
11	0xbd825bb0	-0.06365144
12	0xbbfae837	-0.0076570767
13	0xbafa240e	-0.0019084231
14	0x3d414e70	0.047193944
15	0xbd629b9d	-0.055324186
16	0x3cceb2e0	0.025231779
17	0xbd56cc89	-0.052441154
18	0x3c306742	0.010766806
19	0xbd235cc2	-0.039883383
20	0xbd41db4c	-0.04732828
21	0xbd9f4f75	-0.07778827
22	0xbacb20e2	-0.0015497471
23	0x3d937ae1	0.07201172
24	0x3ce3d288	0.02781035
25	0x3ba82dc2	0.005132408
26	0x3d6d9e9d	0.058012594
27	0x3c810e18	0.01575379
28	0x3c94538e	0.018106248
29	0x3c3ae460	0.011406988
30	0x3d62892e	0.055306606
31	0xbd95dd5d	-0.07317612
32	0x3dd1a877	0.1023721
33	0xbd625d0c	-0.055264518
34	0x3d2ad898	0.041710466
35	0xbd327b04	-0.043574348
36	0xbda406e3	-0.08009126
37	0xbcca0648	-0.024661198
38	0xbdb16ffb	-0.08663937
39	0xbd343f1f	-0.04400551
40	0x3d835950	0.064135194
41	0x3d8102af	0.0629934
42	0x3d14f473	0.036365937
43	0xbd1fc6ef	-0.039008077
44	0xbd162404	-0.03665544
45	0x3cf133fc	0.029443733
46	0xbcb78094	-0.022400178
47	0x3d9d2152	0.07672371
48	0xbd84ef4f	-0.06490957
49	0x3d3638ef	0.04448789
50	0x3d6e3979	0.05816028
51	0x3c50c034	0.012741137
52	0x3dac90b6	0.08426039
53	0xbc983ecb	-0.01858463
54	0x3a59a418	0.0008302345
55	0x3cc802bc	0.024415366
56	0xbd21252a	-0.039342083
57	0xbd5dc74a	-0.054145135
58	0x3d8328a3	0.06404235
59	0x3d71130d	0.05885606
60	0xbb9f27b0	-0.004857026
61	0xbd8724be	-0.06598805
62	0x3da690c3	0.0813308
63	0x3dff29f5	0.124591745
64	0x3b6285e6	0.0034564673
65	0xbdf4aeef	-0.119474284
66	0x3b8a35ea	0.004217853
67	0xbd701eea	-0.058623232
68	0xbd0e9c03	-0.034816753
69	0xbd4dee4f	-0.050276097
70	0xbdaa9ced	-0.083307125
71	0xbcb3ed89	-0.021963852
72	0xbd59bac4	-0.05315663
73	0x3d84df11	0.06487859
74	0x3cff26a8	0.031146362
75	0x3d911d25	0.07085637
76	0xbd21a418	-0.039463133
77	0x3cbeb86b	0.023281297
78	0xbbffc6b8	-0.0078056715
79	0x3c8c4d3e	0.017126676
80	0x3d8510ed	0.06497369
81	0x3dc90e5f	0.09817194
82	0x3d030ccb	0.031994622
83	0xbcc7c387	-0.024385227
84	0x3dcd6bd8	0.10030335
85	0xbd2a0c16	-0.041515432
86	0x3da6e990	0.08150017
87	0xbd943870	-0.07237327
88	0xbd819e8b	-0.06329068
89	0xbd541763	-0.051780116
90	0xbda33080	-0.07968235
91	0xbd29cb6a	-0.041453756
92	0xbd50b589	-0.050954375
93	0xbb9f7988	-0.0048667826
94	0x3d6612dd	0.056170333
95	0x3d45017b	0.048097115
96	0xbcc797b2	-0.024364326
97	0xbdb6ccc6	-0.08925776
98	0xbcd90976	-0.02649377
99	0x3cd23096	0.025657933
100	0xbbf3da1b	-0.0074417717
101	0x3daf7320	0.0856688
102	0xbd94913c	-0.07254264
103	0xbdd70d7a	-0.10500617
104	0x3df92712	0.12165655
105	0xbd8e851f	-0.069589846
106	0x3d787fba	0.060668685
107	0x3d8e84d3	0.06958928
108	0xbdb13dff	-0.08654403
109	0xbd4d5667	-0.050131228
110	0xbce7a64f	-0.028277544
111	0x3dadbd5c	0.08483383
112	0xbc9ea211	-0.019364389
113	0x3c83585c	0.016033344
114	0x3d92b23b	0.07162901
115	0x3d317531	0.043324653
116	0x3c61b5c3	0.0137762455
117	0x3d1f5c74	0.03890653
118	0x3d22b033	0.039718818
119	0xbdb227c2	-0.086989895
120	0xbd85405a	-0.06506415
121	0x3d736e17	0.05943116
122	0xbd19057c	-0.037358746
123	0x3c08c4da	0.008347714
124	0x3d77347b	0.060352784
125	0xbdaae23a	-0.083439305
126	0xbd943a85	-0.07237724
127	0x3c94524d	0.01810565
128	0xbdb8a24e	-0.09015332
129	0xbd3cea7a	-0.04612205
130	0x3c845ad1	0.016156586
131	0xbd6095ae	-0.054830246
132	0x3ce2d937	0.027691467
133	0xbdc2ed45	-0.09517912
134	0xbd8e1a56	-0.06938617
135	0xbd5eb931	-0.05437583
136	0xbdb72bf0	-0.08943927
137	0x3d7c69db	0.06162439
138	0x3d3005e1	0.042974357
139	0x3e12a18c	0.14319438
140	0x3cacf974	0.021115042
141	0xbcb5b1e2	-0.022179548
142	0x3d9f71a0	0.07785344
143	0x3d804931	0.0626396
144	0x3c04fb45	0.008116548
145	0x3daea8a9	0.08528263
146	0x3c648d7e	0.01394975
147	0xbda02739	-0.07819981
148	0xbd6a2df9	-0.05717275
149	0x3c9bd118	0.019020602
150	0xbc0dd1f6	-0.008656016
151	0xbd4d7d8a	-0.05016855
152	0x3d5cbb39	0.053889487
153	0xbd8def3f	-0.06930398
154	0xbc870f74	-0.01648686
155	0xbd7cf07b	-0.061752778
156	0xbce8c8ec	-0.02841612
157	0x3b93ce3c	0.004510669
158	0x3cebd1c0	0.02878654
159	0xbdbf2baa	-0.093345
160	0xbab1126e	-0.0013509521
161	0x3cb50c12	0.022100482
162	0x3c999974	0.01874993
163	0xbd5e4309	-0.05426315
164	0x3d82d1a4	0.06387642
165	0xbd3e0501	-0.04639149
166	0x3d9e29ba	0.077228025
167	0x3c756455	0.014977534
168	0x3d3d691a	0.04624281
169	0x3d402df4	0.046918824
170	0xbdcba783	-0.0994406
171	0x3cc79a15	0.024365464
172	0xbd992f25	-0.07479695
173	0xbd322848	-0.043495446
174	0x3cbccbf3	0.02304647
175	0x3badaee8	0.0053003915
176	0x3d699eb3	0.057036113
177	0x3ca3c2ac	0.019990288
178	0xbd017687	-0.031607177
179	0x3d86795c	0.06566116
180	0xbbcfc29b	-0.0063403375
181	0x3b7574cc	0.003745365
182	0x3c164fb7	0.009174279
183	0xbd46cb36	-0.04853364
184	0x3d04e790	0.032447398
185	0x3da80393	0.08203807
186	0xbddd58fe	-0.108079895
187	0x3bfc1483	0.007692875
188	0x3db05a80	0.086110115
189	0x3d8b1e56	0.067928955
190	0xbd40e75f	-0.047095653
191	0x3d0a102e	0.033706836
192	0xbc90b77c	-0.017665617
193	0x3d0e3d89	0.034726653
194	0xbd8eb6c4	-0.069684535
195	0x3d7f5f7f	0.06234693
196	0x3c99cd6a	0.018774707
197	0xbd8f1b2a	-0.06987603
198	0x3d913e6d	0.07091985
199	0x3d046d62	0.032330878
200	0xbd994dbc	-0.0748553
201	0xbd7d0a10	-0.061777174
202	0xbce56eac	-0.028006874
203	0xbc5c1ddf	-0.013434856
204	0x3d71d0af	0.059036907
205	0xbd724413	-0.059146952
206	0xbdb3a4b1	-0.08771647
207	0x3d5fada3	0.054608952
208	0x3d9d2f27	0.07675009
209	0xbca0ed38	-0.019644365
210	0x3d10ba06	0.035333656
211	0xbc79480c	-0.015214931
212	0x3cf0a7c3	0.02937687
213	0xbd24a294	-0.04019411
214	0xbcfd621c	-0.030930571
215	0x3c275dd9	0.010215246
216	0x3d3a3731	0.04546279
217	0x3d8c1bca	0.06841238
218	0x3d91b4c2	0.07114555
219	0xbdb4e1e6	-0.08832149
220	0x3d6d6a67	0.0579628
221	0x3baf587c	0.0053511243
222	0x3dbc127c	0.09183213
223	0x3d6b11bf	0.05738997
224	0xbd7c2d81	-0.061566833
225	0xbc588240	-0.013214648
226	0xbd498198	-0.049195856
227	0x3d1bb69d	0.03801595
228	0xbd66c6de	-0.056342
229	0xbcf51690	-0.029917985
230	0xbd712bca	-0.05887965
231	0x3b2d4da4	0.0026443982
232	0x3c83a868	0.016071513
233	0xbd12a605	-0.03580286
234	0x3da9f9d0	0.08299601
235	0x3c9d825a	0.019227196
236	0xbd532bfb	-0.051555615
237	0x3d80ac19	0.06282825
238	0x3d4ec45b	0.050480228
239	0x3c51d495	0.012807031
240	0xbda05229	-0.07828171
241	0x3d3242e8	0.043520838
242	0xbd9af934	-0.07567063
243	0xbdb3b2fe	-0.087743744
244	0x3d83c732	0.06434478
245	0x3d4e9088	0.050430804
246	0xbd475e71	-0.04867405
247	0x3bf84e99	0.007577729
248	0xbdeed50c	-0.11661729
249	0xbd3890d1	-0.045059983
250	0xbcb8d42b	-0.022562107
251	0x3c13ac86	0.009013301
252	0x3dccdf7d	0.100035645
253	0xbdbcf52e	-0.09226452
254	0x3db29dc6	0.08721499
255	0x3c4ac067	0.012374974

gru.weight_hh_l1 f4 [384, 128]
0	0xbd428d9d	-0.047498334
1	0x3cf1e377	0.029527409
2	0xbd0a784c	-0.03380613
3	0x3d7c1579	0.061543915
4	0xbd3001db	-0.04297052
5	0xbd7126d6	-0.058874927
6	0x3b679104	0.0035334239
7	0xbd785435	-0.06062718
8	0xbd2be419	-0.041965578
9	0xbdba6e66	-0.09103088
10	0x3d927486	0.07151131
11	0xbd41564a	-0.047201432
12	0x3d03dc71	0.03219265
13	0xbd886b7c	-0.06661126
14	0xbcdd6ab4	-0.02702842
15	0xbd6f8acb	-0.058481973
16	0x3da3af8f	0.079924695
17	0xbcf80df7	-0.030280096
18	0xbc641406	-0.01392079
19	0x3cdead95	0.02718238
20	0xbdad6f5f	-0.08468508
21	0xbca34f8a	-0.019935388
22	0x3cc29f2e	0.023757543
23	0x3dcd496f	0.10023772
24	0xbd11a162	-0.035554297
25	0x3beeed77	0.0072914916
26	0xbd8cae30	-0.06869161
27	0x3c0e76a5	0.008695279
28	0xbdcc65a7	-0.09980326
29	0x3c711f6d	0.014716965
30	0x3d391d30	0.04519385
31	0x3c898e9c	0.016791634
32	0x3dab949e	0.08377956
33	0x3d5453f4	0.051837876
34	0x3d83329c	0.06406137
35	0xbda6c8e2	-0.08143784
36	0xbdc1e738	-0.094679296
37	0xbd1e33a2	-0.03862346
38	0xbd82eef3	-0.06393232
39	0xbbbc0978	-0.0057384335
40	0xbd3d4e72	-0.04621739
41	0xbd34850e	-0.044072203
42	0xbd36d0ea	-0.04463283
43	0xbb589ce2	-0.0033052494
44	0xbd281756	-0.04103788
45	0x3c97eb85	0.018544922
46	0xbd03cfb5	-0.032180507
47	0x3cea0feb	0.028572043
48	0xbc54c0bf	-0.012985407
49	0xbdb7656a	-0.0895489
50	0xbd101b9f	-0.03518259
51	0xbdd782bb	-0.10522982
52	0x3cdb9d08	0.026808277
53	0xb98e3564	-0.0002712413
54	0xbac74b65	-0.0015204964
55	0xbc90e599	-0.017687606
56	0x3dd07509	0.10178573
57	0x3d50c7cd	0.050971795
58	0x3d039927	0.03212848
59	0x3cb59d2f	0.022169678
60	0x3ccda5db	0.0251035
61	0xbcb7df88	-0.022445455
62	0x3d1ad53f	0.037801024
63	0x3d976a94	0.07393375
64	0xbcf3bb0c	-0.029752277
65	0xbcb28cb8	-0.021795616
66	0xbd8691fa	-0.065708116
67	0xbce54da0	-0.027991116
68	0xbd9b1c6a	-0.07573779
69	0xbd3322d7	-0.043734398
70	0xbd204b89	-0.039134536
71	0xbdba4966	-0.09096031
72	0xbcb56982	-0.022145037
73	0x3d299aa1	0.04140723
74	0xbcdaf475	-0.026727894
75	0x3ca40024	0.020019598
76	0x386aa198	5.5940443e-05
77	0xbba66370	-0.005077772
78	0xbc4f4e79	-0.012652987
79	0x3c493a39	0.012281948
80	0x3d398829	0.045295868
81	0x3d32eb65	0.04368152
82	0xbccef643	-0.025263911
83	0x3d68e1f1	0.0568561
84	0x3da643e9	0.081184216
85	0xbc777a31	-0.015104816
86	0x3d27fa1d	0.04101001
87	0xbd956ebe	-0.07296513
88	0xbde1b698	-0.11021155
89	0xbd22010b	-0.039551776
90	0xbce22303	-0.027604586
91	0x3b39da74	0.0028358968
92	0x3d929078	0.071564615
93	0x3d82ab57	0.06380337
94	0xbcee4821	-0.029087128
95	0x3d89de93	0.06731906
96	0xbd821b3a	-0.06352849
97	0xbdb83bcc	-0.0899578
98	0xbdb78758	-0.08961362
99	0xbdd53324	-0.10410145
100	0xbc819b3a	-0.015821088
101	0x3d79871d	0.06091987
102	0xbc264a46	-0.010149544
103	0x3dae2b6a	0.08504374
104	0xbc74f477	-0.014950863
105	0x3c546940	0.012964547
106	0xbd84c48c	-0.06482801
107	0x3c253220	0.0100827515
108	0xbd473dc1	-0.048642877
109	0x3d9678a5	0.0734723
110	0x3b7e8913	0.0038839027
111	0x3cd0032e	0.025392141
112	0xbd89bae7	-0.06725102
113	0x3d8fb3f7	0.070167474
114	0x3d1d7585	0.038442153
115	0x3c0b883e	0.008516369
116	0xbd7384f3	-0.059452962
117	0xbcebc6e7	-0.028781367
118	0xbd95d273	-0.07315531
119	0x3d9620c8	0.07330471
120	0x3d94a24f	0.072575204
121	0xbd1217b8	-0.03566715
122	0xbd4eb8bf	-0.050469156
123	0x3d90a2c2	0.070622936
124	0xbd99ce02	-0.07509996
125	0xbbf19242	-0.0073721716
126	0x3d75dcfa	0.060025193
127	0xbd056a25	-0.03257193
128	0xbdc022e9	-0.093816586
129	0x3cf842a8	0.030305222
130	0x3d5aacb5	0.053387363
131	0xb9faa844	-0.00047809083
132	0xbd739396	-0.05946692
133	0x3b96d963	0.0046035512
134	0x3d9efeb7	0.07763427
135	0x3cc00d02	0.023443703
136	0xbbaff45d	-0.0053697065
137	0xbd1d3102	-0.038376816
138	0x3d22b270	0.039720953
139	0xbddeb9bb	-0.10875269
140	0x3d28113c	0.04103206
141	0xbdf408b0	-0.119157195
142	0xbdadc3cb	-0.0848461
143	0xbda02036	-0.07818644
144	0xbd3e683b	-0.04648612
145	0xbd3e4357	-0.04645094
146	0x3cd0ee4d	0.025504256
147	0xbce30335	-0.02771149
148	0x3cc3a6bf	0.023883222
149	0x3c9e3408	0.01931192
150	0x3d267261	0.040636424
151	0x3bbb3ae7	0.005713809
152	0x3c8f7a56	0.017514389
153	0x3d3c6c92	0.04600198
154	0x3d3eb577	0.046559777
155	0xbca50d43	-0.020147925
156	0x3da077c6	0.07835345
157	0x3dd356cc	0.103192896
158	0x3c503f97	0.0127104735
159	0xbce651d2	-0.028115187
160	0xbc84ddd3	-0.016219055
161	0xbde9241d	-0.11383841
162	0xbba6ec29	-0.0050940705
163	0x3da11587	0.07865434
164	0xbd2df334	-0.042468265
165	0xbc78abb1	-0.015177653
166	0xbd38a1dc	-0.045076236
167	0xbc31d920	-0.010854989
168	0xbd754742	-0.05988241
169	0x3df04b0e	0.117330655
170	0x3d4b9033	0.049698066
171	0xbcbbd8e5	-0.022930572
172	0xbc027449	-0.007962295
173	0xbe002462	-0.12513879
174	0xbd6f1bac	-0.058376
175	0x3dbad956	0.09123485
176	0x3b9ca16b	0.0047799847
177	0xbe0023a5	-0.12513597
178	0xbd258894	-0.040413454
179	0x3c867687	0.01641394
180	0xbd542e6e	-0.05180209
181	0x3ce2d5bf	0.027689813
182	0xba390be7	-0.00070589635
183	0xbd464683	-0.04840709
184	0xbd59440d	-0.053043414
185	0xbdd5a609	-0.10432059
186	0x3d0d876a	0.03455297
187	0xbd57f13b	-0.05272029
188	0x3db8473b	0.08997961
189	0x3ba5e4ff	0.005062699
190	0xbbf5e126	-0.0075036464
191	0x3cbb36fb	0.022853365
192	0xbd0390dc	-0.03212057
193	0xbd16f7ce	-0.03685742
194	0xbde2bdf6	-0.110713884
195	0xbca4a7c4	-0.020099528
196	0x3d6cb55c	0.057790145
197	0xbdd79192	-0.10525812
198	0xbdc3bab8	-0.09557098
199	0xbe081ecb	-0.13292997
200	0x3d73e7c3	0.059547197
201	0x3c66740f	0.014065756
202	0xbe0aaca4	-0.1354242
203	0xbc68d05a	-0.014209831
204	0x3d074da0	0.033033013
205	0x3d53c73b	0.051703673
206	0x3c272631	0.010201977
207	0x3cf01e7f	0.029311417
208	0x3d868df9	0.06570048
209	0x3cf40b5a	0.02979057
210	0x3dced555	0.100992836
211	0x3d0fdb48	0.035121232
212	0x3d8fc9ae	0.07020889
213	0xbc94729d	-0.018121058
214	0xbbb32b62	-0.005467818
215	0xbd17b31e	-0.037036054
216	0x3d77687e	0.060402386
217	0xbda5caf7	-0.08095353
218	0xbd0b5699	-0.034018133
219	0xbdda0d2f	-0.10647046
220	0x3d6af4a3	0.05736221
221	0x3dd32dbc	0.103114575
222	0x3dc6e3db	0.09711429
223	0xbde2db53	-0.11076989
224	0x3dc1ee2a	0.09469254
225	0x3d12a2d1	0.035799805
226	0xbe10e0cc	-0.14148253
227	0xbd80d653	-0.06290879
228	0x3c4b8473	0.012421715
229	0x3c8e61e4	0.017380662
230	0xbdccf6a6	-0.10007982
231	0x3d5b5f75	0.05355783
232	0xbc5bb888	-0.013410695
233	0x3c74c59b	0.014939691
234	0xbcf533dd	-0.029931957
235	0x3e282065	0.16418608
236	0x3d9e3c28	0.07726318
237	0x3d399483	0.045307647
238	0xbd9761da	-0.073917106
239	0xbc30dbd0	-0.010794595
240	0x3d671389	0.056415115
241	0xbb8c5df8	-0.004283663
242	0x3d7a6104	0.061127678
243	0xbd7660cf	-0.060150918
244	0xbcbb5d2c	-0.022871576
245	0xbd2bf1c8	-0.041978627
246	0xbda04b1a	-0.078268245
247	0xbbcd29fa	-0.0062611075
248	0x3e03b2e2	0.12861207
249	0xbdb4d1f6	-0.08829109
250	0x3c377a3e	0.011198578
251	0x3ce24dd5	0.027625004
252	0xbcb6f7a9	-0.02233489
253	0xbe0d218d	-0.1378233
254	0xbd5b70f7	-0.05357453
255	0xbdbc77cc	-0.09202537

gru.bias_ih_l1 f4 [384]
0	0xbda5e45c	-0.08100197
1	0xbd8da9e9	-0.069171734
2	0x3d0e1bd1	0.034694497
3	0xbdd12eeb	-0.10214027
4	0x3c757b13	0.014982956
5	0x3c3bce8d	0.01146282
6	0x3ce3fcab	0.027830442
7	0xbd687c2e	-0.056759052
8	0x3cdae6f7	0.02672146
9	0xbd8fe0a2	-0.07025267
10	0xbe0a4d65	-0.13506086
11	0x3d82a1f5	0.06378547
12	0xbcaf9d1e	-0.021437224
13	0xbc9de7a9	-0.019275503
14	0x3d957e08	0.07299429
15	0xbdcd9329	-0.10037834
16	0xbcabfcfa	-0.020994652
17	0x3d12f77f	0.035880562
18	0x3dad6712	0.08466925
19	0xbdab9838	-0.08378643
20	0xbd4341c5	-0.047670145
21	0xbd753e7b	-0.05987404
22	0x3a877e89	0.0010337393
23	0xbd42c9da	-0.047555782
24	0x3ccd6c56	0.025076073
25	0x3caeb355	0.021325747
26	0xbcd132e7	-0.025536967
27	0xbdb88ecd	-0.09011612
28	0x3d625710	0.05525881
29	0xbd3711b0	-0.044694602
30	0xbcad639a	-0.021165658
31	0x3ca0924f	0.019601015
32	0xbda92cee	-0.08260523
33	0xbd6aa43c	-0.057285532
34	0x39d470f9	0.00040519962
35	0xbda61dfa	-0.08111186
36	0xbc26029b	-0.010132457
37	0x3d5ee36f	0.054416116
38	0xbd94643d	-0.072456814
39	0xbb5373d2	-0.003226508
40	0xbd736e7d	-0.05943154
41	0xbdc8d206	-0.09805684
42	0x3d767eb5	0.06017943
43	0xbe01b2f2	-0.12665918
44	0xbdb73dca	-0.08947332
45	0x3d23ec67	0.040020373
46	0xbdcb6972	-0.099322215
47	0xbd821bcf	-0.0635296
48	0x3d325236	0.043535434
49	0xbc929001	-0.017890932
50	0xbd09b8f7	-0.03362366
51	0xbcafa15d	-0.021439249
52	0x3c7e1441	0.015507759
53	0xbb40f211	-0.0029441158
54	0x3d81003d	0.062988736
55	0xbdbf6b2f	-0.093466155
56	0x3cb974fb	0.022638788
57	0x3d10c7eb	0.035346907
58	0x3d426e6d	0.04746859
59	0xbc2b4750	-0.010454014
60	0xbd9474f1	-0.07248867
61	0x3d917edf	0.07104277
62	0xbc6c9256	-0.014439186
63	0xbd8fbc15	-0.07018296
64	0xbd8c8624	-0.06861523
65	0xbc84e81b	-0.016223958
66	0xbdb513c4	-0.088416606
67	0xbd81edf8	-0.06344217
68	0xbd453262	-0.048143752
69	0x3d6197ce	0.055076413
70	0x3c1212a0	0.008915573
71	0xbe139ba9	-0.14414848
72	0xbda186a3	-0.07887008
73	0x3c12d00c	0.008960735
74	0xbd92b8a7	-0.07164126
75	0xbdbb65f8	-0.09150308
76	0xbd1cc098	-0.03826961
77	0xbd9fa2f4	-0.07794753
78	0xbdf38d0b	-0.11892136
79	0x3c15908c	0.009128701
80	0x3c8513f7	0.016244872
81	0xbd3c1fff	-0.04592895
82	0xbd91a72c	-0.07111964
83	0x3ced6e63	0.0289833
84	0xbcd734b0	-0.02627024
85	0xbd5978f4	-0.053093866
86	0x3d7a1a67	0.061060335
87	0xbce1b135	-0.02755032
88	0x3d23a908	0.039956123
89	0xbdd7a6c7	-0.10529857
90	0xbdc4790a	-0.09593399
91	0xbdde22ed	-0.10846505
92	0x3d6ee362	0.058322318
93	0xbd9e8eac	-0.07742056
94	0x3cb9284b	0.022602221
95	0x3baa0251	0.0051882644
96	0xbd647263	-0.05577315
97	0x3ad365e6	0.001612839
98	0x3bf44669	0.0074546826
99	0xbbd4814f	-0.0064851413
100	0xbcdecce9	-0.027197318
101	0x3ca81d5d	0.020521814
102	0xbc4decf8	-0.012568705
103	0xbde33641	-0.110943325
104	0xbd217736	-0.03942033
105	0xbb67d920	-0.003537722
106	0xbd6b13cc	-0.057391927
107	0x3cf88700	0.03033781
108	0xbc384a57	-0.011248193
109	0x3cb7a257	0.022416277
110	0x3c6d6316	0.014488956
111	0xbd0e4566	-0.034734152
112	0x3bf2c205	0.007408383
113	0xbcc5abfe	-0.024129864
114	0xbd0b9fed	-0.034088064
115	0xbd273668	-0.04082337
116	0x3d89c7bd	0.0672755
117	0xbca4fd9b	-0.02014046
118	0x3d50ec04	0.051006332
119	0x3c882101	0.0166173
120	0xbd086645	-0.033300657
121	0x3da49598	0.08036345
122	0xbe0b3fbf	-0.13598536
123	0xb9ab0f50	-0.0003262707
124	0x3d8c0456	0.068367645
125	0xbd22b21d	-0.039720643
126	0x3bcbc69f	0.006218746
127	0xbcd74f14	-0.026282825
128	0x3d8d2df2	0.06893529
129	0xbdac37e2	-0.08409096
130	0xbdcc384b	-0.099716745
131	0x3d3a9757	0.045554485
132	0x3bd811f3	0.0065939366
133	0xbad335b0	-0.0016114023
134	0x3dc6d0bf	0.09707784
135	0x3d2e9df3	0.0426311
136	0x3d9667c3	0.0734401
137	0xbd3cc109	-0.04608253
138	0x3dcd313f	0.100191586
139	0x3debf251	0.115208276
140	0x3e22c2a9	0.1589457
141	0xbdc051a6	-0.09390573
142	0x3d8cfef5	0.06884567
143	0x3d8cdb41	0.06877757
144	0xbe0687a3	-0.13137679
145	0x3e259710	0.16170907
146	0x3dfc10aa	0.12307866
147	0x3d3c6b48	0.04600075
148	0xbdb8ca6b	-0.09022983
149	0xbe00b32f	-0.12568353
150	0x3e26916d	0.16266413
151	0x3d80d8e7	0.06291371
152	0xbd9a56ec	-0.0753611
153	0x3db5028c	0.088383764
154	0xbd3dca72	-0.046335645
155	0x3c11d44f	0.008900716
156	0x3d1259a2	0.03573001
157	0x3dae75c6	0.08518557
158	0xbd55c618	-0.05219087
159	0x3d6efc28	0.058345944
160	0xbd9595e9	-0.07303984
161	0x3ce15b00	0.027509212
162	0xba11582b	-0.0005544449
163	0xbb3044d5	-0.0026896496
164	0x3cb92da9	0.02260478
165	0x3e05f131	0.13080288
166	0x3cb91a66	0.022595596
167	0x3deeeec8	0.11666638
168	0xbca3af67	-0.0199811
169	0x3d9c302d	0.07626376
170	0x3de357db	0.111007415
171	0x3b06b8e7	0.0020556988
172	0xbcd906b2	-0.02649245
173	0x3e14e68a	0.14541069
174	0x3df7fe80	0.12109089
175	0x3d3c4a1a	0.045969106
176	0x3da7d859	0.08195562
177	0x3c587aba	0.013212854
178	0x3d29769e	0.041372888
179	0xbb941c63	-0.0045199855
180	0xbe0413a9	-0.12898125
181	0x3cb7f3a5	0.022455046
182	0x3e0b68ef	0.13614248
183	0x3e08cafa	0.1335868
184	0x3db32835	0.08747903
185	0x3db8e334	0.090277106
186	0x3dca1741	0.098677166
187	0xbcaefba7	-0.021360232
188	0xbda4787d	-0.08030794
189	0x3e2d8b32	0.1694763
190	0x3e18065b	0.14846174
191	0x3d7c45ea	0.061590113
192	0xbdae1a69	-0.08501131
193	0x3d752742	0.059851892
194	0xbce95734	-0.028483965
195	0x3d9481a9	0.07251293
196	0x3dddd605	0.108318366
197	0x3dd194c5	0.10233454
198	0x3e03e133	0.12878875
199	0x3cebca99	0.02878313
200	0x3d120748	0.035651475
201	0x3e10d35b	0.14143126
202	0xbbd59ac4	-0.0065186936
203	0xba8d98d8	-0.0010802997
204	0x3d880bc2	0.066428676
205	0x3d08529d	0.03328191
206	0xbd875669	-0.06608278
207	0x3d8f09e8	0.06984311
208	0x3d318564	0.0433401
209	0x3e1e1d9f	0.15440987
210	0x3db50256	0.08838336
211	0x3e3e39ff	0.18576811
212	0x3e1c70cc	0.15277404
213	0x3d6f86c8	0.058478147
214	0x3d728173	0.059205484
215	0x3bd41d7d	0.006473242
216	0x3dd2cbc8	0.102927744
217	0x3c2357ef	0.0099696955
218	0xbd9d1468	-0.07669908
219	0xbe003224	-0.12519127
220	0x3c1f5e91	0.009727136
221	0x3a967036	0.0011477533
222	0xbb629fed	-0.0034580186
223	0x3df1a838	0.11799663
224	0x3cb3867a	0.02191471
225	0x3e4a24c0	0.19740582
226	0x3e1e4a1f	0.15457962
227	0xbc5f9f45	-0.013648813
228	0x3d1c9b4b	0.038234036
229	0x3ccee83c	0.025257222
230	0x3b07cb19	0.002072042
231	0x3ba77e8f	0.0051115225
232	0xbc9d17e7	-0.019176437
233	0x3df56687	0.11982446
234	0x3d11e791	0.03562123
235	0x3dc4a14d	0.09601078
236	0x3d236064	0.039886847
237	0xbd232d5c	-0.03983818
238	0x3d5b5e39	0.053556655
239	0x3c99269e	0.018695172
240	0x3b6c9bac	0.003610353
241	0x3dbc9dff	0.09209823
242	0x3a9e8a3d	0.0012095642
243	0xbd357c2a	-0.044307865
244	0x3d5f8973	0.05457444
245	0x3df7cefe	0.121000275
246	0x3cec86e0	0.028872907
247	0x3df85bcf	0.12126886
248	0xbd49ef40	-0.049300432
249	0x3e067e30	0.13134074
250	0x3dcc9e5e	0.09991144
251	0x3d81423e	0.06311463
252	0x3debacd1	0.115075715
253	0x3db9d186	0.090731665
254	0x3e17c96e	0.14822933
255	0x3e0cd5a2	0.1375337
